Notebook/CODPmodel.pth (torch, 13916 bytes, 5 tensors)

fc1.weight f4 [64, 10]
000000 98 d8 21 3e ba e2 54 3e 07 e9 32 be a2 34 55 3e
       0.1580528 0.20789614 -0.17471705 0.20820859
000010 af 0b 75 be 4d be 9c be 00 13 97 be 6e 73 32 3e
       -0.23930238 -0.30613938 -0.29506683 0.17426845
000020 b0 e2 1e 3e 38 d3 7f 3d 6e e3 76 3e e6 66 f2 be
       0.15516162 0.062457293 0.24110195 -0.4734413
000030 e5 25 a4 3d 7b 12 e5 be b1 ec a6 3d 03 cc 4e 3d
       0.0801504 -0.44740662 0.08150614 0.05048753
000040 bd f2 71 be 29 9b 3a 3e 91 de 31 be 32 89 3e be
       -0.23627754 0.18223251 -0.17370059 -0.18607023
000050 cb 96 1c be f4 2f 9d be e0 e7 06 bc 21 37 57 be
       -0.15291898 -0.30700648 -0.008233994 -0.21017124
000060 08 45 02 3e 7a e6 34 3e 54 72 97 be b2 da 3d 3e
       0.12721646 0.17666045 -0.29579413 0.18540457
000070 64 4a 23 bf 48 b4 c8 bb 42 17 f5 3d 2e 5c 8e be
       -0.63785386 -0.006125007 0.11967327 -0.27804703
000080 04 fc 94 3e a0 fa a4 be 68 a4 07 3d 0a 0b 8c bd
       0.29098523 -0.32222462 0.033115774 -0.06838043
000090 c3 b7 2c 3c c7 8f d7 bd 86 bc 11 bf 54 ea 0b be
       0.010541859 -0.1052547 -0.5692829 -0.13663608
0000a0 66 1a 92 be 3a c5 58 3e e7 b3 5e be 00 00 72 37
       -0.28535765 0.21168986 -0.21748315 1.4424324e-05
0000b0 ee 2c f2 bd 7a 73 ed bd de 50 66 3e 81 42 4c be
       -0.11824976 -0.11594291 0.22491786 -0.19947244
0000c0 b5 90 9e be 48 a3 01 3d b2 4c 62 be 12 cc 86 3e
       -0.30969778 0.031649858 -0.2209957 0.26327568
0000d0 90 b3 4e be a5 96 ea 3e 28 4d 84 bd 1a 43 7a 3e
       -0.20185685 0.45818058 -0.06460029 0.2443966
0000e0 ea 79 d7 3d 01 2d b0 3d cb a2 3f 3f ca 95 6e bd
       0.105213 0.08602334 0.7485778 -0.05824832
0000f0 42 a8 93 3d 9e bd 3b ba 1d bc 11 3d e0 8e 9a bd
       0.07209827 -0.0007161739 0.03557979 -0.075467825
000100 23 0c 68 be 5f 02 9c bc 48 cd 24 bd 38 e2 86 bc
       -0.2266088 -0.0190441 -0.040234834 -0.016465291
000110 85 ac 1d bc 6b c9 24 be 15 51 85 be fe 64 e4 bb
       -0.009623651 -0.1609246 -0.26038423 -0.006970047
000120 43 12 24 bd c8 87 ad 3d 79 09 26 be 0c ff 71 3d
       -0.04005648 0.08473164 -0.16214551 0.059081122
000130 b3 46 d7 bc cc 10 4c be 1b 22 50 3e 29 70 be bd
       -0.02627883 -0.19928282 0.2032551 -0.092987366
000140 ee 72 2e 3e 78 73 bc bd 68 6a c7 bd a4 82 83 3d
       0.1703603 -0.092017114 -0.09737092 0.06421402
000150 60 bb 01 be d0 d4 88 be 4c a8 c3 3d c9 7d 8d be
       -0.12669134 -0.26724863 0.095535845 -0.2763503
000160 e0 ea d7 bc 7c 7f 37 3e fa e5 6a 3d a1 ad 26 3f
       -0.026357114 0.17919725 0.05734823 0.65108687
000170 3c 86 52 3d 36 0e a3 3c db a4 2f 3e 28 bb 34 bd
       0.051397547 0.019904237 0.17152731 -0.0441238
000180 5f b2 86 be 3a 3e 1e 3e 61 92 68 3f 83 a4 1e be
       -0.2630796 0.15453425 0.90848356 -0.15492444
000190 93 0d 8a be 1d b3 ae 3d 90 c0 3c be cb ec 0b 3f
       -0.2696348 0.08530257 -0.18432832 0.5465819
0001a0 9f 1c 81 be 25 1d 76 3e ee 4a 8a be 03 1f 9b be
       -0.2521715 0.24034555 -0.27010292 -0.30297098
0001b0 ee f6 b9 3e 0c e0 10 3c 2a 10 1e be 80 91 b7 3e
       0.36321205 0.008842479 -0.15435854 0.35853195
0001c0 b2 7a 27 be cf ff 72 3e 06 cb 8e be 64 e4 1e 3e
       -0.16355398 0.23730396 -0.2788927 0.15516812
0001d0 f0 aa af be 39 f0 83 3e 63 8b 33 3e 4a 53 87 be
       -0.34310102 0.25769213 0.1753364 -0.26430732
0001e0 73 d2 90 be 0e 92 de bd 3a c1 02 3e 65 d8 a0 3e
       -0.2828556 -0.108677015 0.12769023 0.31415096
0001f0 f8 31 a8 bd 22 e3 e5 bd 6e 83 6b be 30 80 65 bd
       -0.08212656 -0.11224963 -0.22999355 -0.056030452
000200 03 13 34 be 20 8b 8b 3c 9f 8e 12 3e 8a ec dd 3e
       -0.17585377 0.017034113 0.14312218 0.43344527
000210 51 8d 00 bc 72 6f 3b 3e e2 5d 1f be ab 58 4b 3c
       -0.007846192 0.18304232 -0.15563157 0.012411277
000220 f7 b8 9d 3e 02 15 18 be 62 5a 1a 3f 98 0c 8b be
       0.3080518 -0.14851764 0.60294163 -0.27158046
000230 a5 41 15 be 90 4c da 3d c8 e1 32 be 00 5d c2 3a
       -0.14575823 0.106591344 -0.17468941 0.0014828742
000240 26 9a 56 be 42 ca 72 be b0 26 95 bc ca 78 3d 3e
       -0.2095724 -0.23709968 -0.018206924 0.18503109
000250 22 83 ba bd 7e a1 44 be 82 63 83 be 4c 91 24 3e
       -0.09107043 -0.1920223 -0.25661856 0.16071051
000260 2c ee 81 bd 46 30 36 3e 54 75 96 bd 22 ca 12 3e
       -0.06344256 0.17791852 -0.07346597 0.1433492
000270 20 01 2a be db 33 e3 bd 18 72 df 3d 47 3a a4 bd
       -0.16601992 -0.11093875 0.109104335 -0.08018928
000280 7d 15 88 be 1e c4 3c be 5c 6a 9c bd c7 97 8b 3e
       -0.26578894 -0.18434188 -0.07637474 0.27264234
000290 e7 de 8a 3e 0e 5f 4e be 9e 39 79 be e7 77 65 be
       0.27123186 -0.20153448 -0.24338385 -0.2240902
0002a0 31 65 66 be 44 32 93 be 71 d3 83 3d 54 ad 05 3e
       -0.22499539 -0.28749287 0.064368136 0.130544
0002b0 52 8e 38 be 10 56 be 3e 05 b1 27 3e 95 ee 18 3d
       -0.18023041 0.37175035 0.16376121 0.037336905
0002c0 e5 26 4a 3c ca 1c 78 3d 3b 41 c6 3e fe 0a 80 3d
       0.012338375 0.06057433 0.38721642 0.062520966
0002d0 1f 61 31 bd 25 bd c9 be 3c 84 67 be 0c e2 ea bd
       -0.043305513 -0.39402118 -0.22609037 -0.11468896
0002e0 c9 ad 26 3e c9 e6 76 3e c0 b0 46 be dd ef 52 be
       0.16277231 0.24111475 -0.19403362 -0.20599313
0002f0 d3 db 24 bf 73 39 ff bd 6a 2c 8d be a7 c5 90 be
       -0.64397925 -0.124621294 -0.27572948 -0.28275797
000300 02 ba cc bd a9 67 9f 3e 46 87 76 be 34 a4 40 be
       -0.09996416 0.31133774 -0.2407504 -0.18812639
000310 f2 47 78 3e 40 86 23 bc 80 8c 6e 3c 80 ad ae 3c
       0.24246195 -0.009980738 0.014559865 0.021322966
000320 55 4e db 3d 2d 41 1a 3e 4c 83 44 3e a1 f7 01 3e
       0.107083 0.15063925 0.19190711 0.12692119
000330 81 26 14 be 5f ef aa bd 84 4f 69 be 80 f1 80 be
       -0.14467813 -0.08346438 -0.22784239 -0.2518425
000340 64 fc 16 bd fe 34 2d 3d 18 d4 f2 3d 62 6f d2 be
       -0.036861792 0.042286865 0.1185686 -0.41100603
000350 19 99 18 be 45 6e 1c bf 1a 11 31 be 94 c5 ec 3d
       -0.14902152 -0.6110576 -0.1729168 0.115611225
000360 81 b7 7f 3d 00 74 00 be c6 ca 04 bf ae 86 df bb
       0.062430862 -0.1254425 -0.5187191 -0.006821475
000370 63 8f 8b 3e a9 f0 39 bc 74 7c 39 3e 3b eb fd be
       0.27257833 -0.011348882 0.18113881 -0.4959353
000380 cf 70 3c be a2 b5 d3 3c a5 6b e2 39 88 59 7b 3e
       -0.18402408 0.025843445 0.0004318628 0.24545872
000390 03 7c ef bd 0f 28 ff 3d 3e bb bc bd 94 68 fa 3d
       -0.11693575 0.124588124 -0.09215401 0.12226978
0003a0 6d 81 6b 3e a5 e9 dd bd 56 20 95 3e 44 9a 10 be
       0.22998591 -0.1083558 0.29126233 -0.14121348
0003b0 6e 2a ca 3d fc 8d 16 3e 9d f9 93 3e db f5 08 3c
       0.09871374 0.147026 0.28901377 0.008359398
0003c0 30 5e dd bd f0 b0 a1 bc 24 a2 95 be d0 aa 92 bc
       -0.108089805 -0.01973769 -0.29225266 -0.017903715
0003d0 97 60 96 be 00 38 f7 3c 3e f6 50 3e c0 51 c1 bb
       -0.29370567 0.03017807 0.20406434 -0.005899638
0003e0 c5 35 82 3e c6 52 4d be 23 42 81 be 06 0c 2d 3e
       0.25431648 -0.20051107 -0.2524577 0.16899118
0003f0 30 e3 0d bd 2e d1 66 3e a0 6d 1c 3e 68 a8 79 bd
       -0.03464049 0.22540733 0.15276194 -0.06095162

fc1.bias f4 [64]
000000 04 57 9a be aa ae 12 bc 47 08 20 bd ac 00 a6 3e
       -0.30144513 -0.008952776 -0.039070394 0.32422388
000010 c2 51 d3 bd 97 5b b1 bd 56 20 57 3e 3d ca 8d 3d
       -0.103183284 -0.086600475 0.21008429 0.069233395
000020 c2 15 95 be 98 4d fb bd 28 8e b8 be e4 ac 43 bd
       -0.29118162 -0.12270659 -0.36045957 -0.047772303
000030 f0 0f 99 bd 8d 79 9d 3e 26 ad f4 bd 43 d8 86 3c
       -0.07473743 0.30756798 -0.11947088 0.016460543
000040 1c 40 aa bd c5 a3 5d be 5e 16 97 3e 40 09 6a 3c
       -0.08313009 -0.21644504 0.29509252 0.014284432
000050 e0 10 2e 3e c1 df 49 3e 0f 50 f9 3d 11 43 dc bd
       0.16998625 0.19714262 0.12173473 -0.107549794
000060 4e 15 7a 3e 2a 2e 35 3e e0 dc 86 be 5d 2a 29 be
       0.2442219 0.17693391 -0.2634039 -0.16520067
000070 fc 13 a8 bb 59 0a 65 3e e2 17 ac 3e bb ef 94 bd
       -0.0051293354 0.22367229 0.3361197 -0.072722875
000080 5f f1 6e 3e 92 29 07 3d cc 94 a7 be 74 e8 92 be
       0.23334263 0.03299863 -0.3273071 -0.28692973
000090 48 67 1b 3d a8 c9 71 3d 8a 2f 62 3e fe ee 3a bd
       0.037940294 0.059030205 0.22088447 -0.045638077
0000a0 16 89 a0 3d db b0 98 3e 3e d5 ac bd e0 8a 11 3e
       0.07838647 0.2982243 -0.0843911 0.14213133
0000b0 20 06 1d 3e b2 df 41 be f8 56 7d bc 8e 1a 2d 3e
       0.15334368 -0.18932989 -0.0154626295 0.16904661
0000c0 96 79 d0 bd 8d f2 16 bd f4 c7 44 be 4a 21 2f bc
       -0.10179441 -0.03685241 -0.19216901 -0.010689089
0000d0 20 ba 69 3d 01 11 99 3e 8c 49 4e be 0d bc 57 3e
       0.05706227 0.29895785 -0.20145243 0.2106783
0000e0 a2 33 17 be 09 5c 77 be e0 3f 76 bc 10 63 83 bc
       -0.1476579 -0.24156202 -0.015029877 -0.016038448
0000f0 22 b5 dc bd dc a2 09 be 6f 6c 75 3d 66 e9 83 be
       -0.10776736 -0.13441032 0.059917863 -0.25764006

fc2.weight f4 [32, 64]
000000 dc ba c9 bd 22 34 07 3b 6d 4f 30 bd dd 32 12 be
       -0.09850094 0.0020630439 -0.043044496 -0.14277215
000010 6c 30 08 3d ac 4e 81 bd de 13 e9 bd 3f 01 32 be
       0.033249304 -0.063138336 -0.113807425 -0.17383288
000020 a8 b1 d0 bd 4a 6b c1 3d 6f b7 04 bc a1 f8 85 bd
       -0.10190135 0.09444292 -0.008100375 -0.06541563
000030 a0 2c ac 3d 6e 01 37 3e fa 63 bb 3d f5 30 f0 3d
       0.08406949 0.17871639 0.091499284 0.11728088
000040 a2 b7 bc 3d 0e 99 e0 3d be a3 b0 3d 00 6b 5b bc
       0.09214713 0.10966693 0.08624981 -0.01339221
000050 f8 c6 0d be d3 b8 91 bd df 7a 2d bd 52 fe 01 be
       -0.13845432 -0.071153305 -0.042353507 -0.12694672
000060 52 83 89 bd f8 84 86 3d 3c 1b c6 bd 12 b2 c7 3d
       -0.067145005 0.065683305 -0.09673163 0.09750761
000070 e1 9f c6 3b 59 40 57 3d cf cf 0d 3c 55 0d f2 3d
       0.0060615395 0.0525516 0.008655502 0.11818949
000080 82 df 78 3d f6 49 9a 3d 35 a0 df 3d 50 75 f7 3d
       0.06076003 0.07533638 0.10919229 0.120829225
000090 08 f2 95 bd 12 db d1 bd 75 52 b3 3d 04 67 88 3b
       -0.073215544 -0.102468625 0.08755962 0.004162671
0000a0 c7 b7 db bd c0 c6 54 3d b8 97 b7 bd 98 3f 85 bc
       -0.10728412 0.051947355 -0.08964485 -0.016265675
0000b0 66 33 24 3c 6a 1b f2 3d 7f 43 c5 3b d4 a4 01 3d
       0.01002202 0.11821635 0.006020009 0.031651333
0000c0 cd 86 61 3d 30 bd 00 bd a0 3e 4d 3c 62 e9 73 3e
       0.055060197 -0.031430423 0.012527138 0.23819497
0000d0 f0 b7 97 3c f1 08 b2 3d 89 ee 37 3d f5 22 8e bc
       0.018520325 0.08693112 0.04490522 -0.017350653
0000e0 e4 18 61 3d 82 0c 24 3c 88 b4 08 3d 60 b5 70 bc
       0.05495538 0.010012748 0.033375293 -0.014691681
0000f0 ae 3d ef 3d 29 b2 26 bd b5 0e 26 3d e0 c8 c8 3c
       0.11681686 -0.04069725 0.04054137 0.024509847
000100 72 1a 8d bd 36 19 ee bd cc a3 5c 3d b0 40 39 3c
       -0.0688981 -0.11625902 0.053867146 0.011306927
000110 78 92 de 3d e8 83 55 3d e2 2b e5 3d c0 3d c7 3c
       0.108677804 0.05212775 0.111900106 0.024321437
000120 b8 3a c0 bc b8 64 e6 3c bc e7 de bd 1c 2d 0b bd
       -0.0234655 0.028124198 -0.108840436 -0.033978567
000130 82 fc 9f 3d 7c be ac 3d 2e 62 c3 bd a8 a8 fe bd
       0.07811834 0.084347695 -0.09540211 -0.124345124
000140 08 58 16 bd 74 9d 12 bd 00 c8 43 b9 08 61 d9 3d
       -0.036705047 -0.03579469 -0.00018671155 0.1061421
000150 d8 bf c5 3d 44 cd ec bd 48 9e 9e 3d ea 18 83 3d
       0.09655732 -0.11562589 0.077450335 0.06401236
000160 52 1b e4 3d 1c e3 36 3d 60 85 71 bd d0 07 9f 3d
       0.111380234 0.044650182 -0.058965087 0.07765162
000170 e0 6d 19 3c f4 8b aa 3d 30 85 de bc 2e bb f6 bd
       0.009364575 0.08327475 -0.027163118 -0.120474204
000180 70 93 91 bd c0 64 d9 bd c0 6d 70 3d 80 c1 b8 3b
       -0.071081996 -0.1061492 0.058698416 0.0056383014
000190 c0 23 55 3b ea 67 d7 bd a4 5b 21 bd b4 2c 08 3d
       0.003252253 -0.10517867 -0.039394036 0.033245757
0001a0 aa 4c cf bd bc 7c 22 3d e8 91 91 3d 00 0a 22 3b
       -0.101220444 0.039669737 0.071079075 0.0024725199
0001b0 ee 51 cf 3d 9e 34 99 bd 04 47 56 bd a0 da ca bd
       0.10123049 -0.07480739 -0.05231382 -0.09904981
0001c0 d8 48 be 3c d2 41 81 3d be 7e a6 3d d4 c2 c8 bd
       0.023228094 0.06311382 0.08129643 -0.098027855
0001d0 20 5e b1 bc 1a 62 da bd d8 8c c5 bd ec 88 57 3d
       -0.021651328 -0.10663243 -0.096460044 0.052620813
0001e0 94 cc 5d 3d 6a f5 88 3d 90 02 d5 3d 00 e7 28 ba
       0.05415018 0.06687434 0.104008794 -0.0006443113
0001f0 e0 f5 d8 bb 84 1d c7 3d c0 cc 54 3c 20 aa 2e 3c
       -0.0066211075 0.097224265 0.012988269 0.010660678
000200 a4 ff 1b 3d 3d e8 a3 bd fc 86 b9 3d f0 60 73 bd
       0.038085595 -0.0800328 0.09058949 -0.05941862
000210 3e 32 d3 3d c2 43 72 bd 4c af 97 bd 89 82 2c bd
       0.10312317 -0.05914665 -0.07406482 -0.042116676
000220 c0 c4 e3 3c 38 41 9f 3c ea 58 6e 3d 24 7b 13 3d
       0.027803779 0.019440278 0.058190264 0.036006108
000230 b8 4d c5 3c 80 64 98 3b 28 9c 32 bd 87 88 1c 3d
       0.02408491 0.0046506524 -0.043605953 0.03821614
000240 ec 9b ba 3d 16 33 3e 3c bf be 57 3d e0 dd 82 bb
       0.09111771 0.0116088595 0.052672144 -0.0039937347
000250 20 ad d4 bb 4b 9e 2d 3d 6d b6 80 bd 60 80 a1 bb
       -0.0064903647 0.042387288 -0.06284795 -0.0049286336
000260 6c 28 11 3d e0 7f 97 bb d1 35 13 3d a0 2a c0 bc
       0.03543894 -0.004623398 0.035939995 -0.023457825
000270 00 cb 3d bd 41 e4 d5 bd 84 46 b8 bd fb 7d ba 3d
       -0.046336174 -0.104439266 -0.08997825 0.0910606
000280 0f 82 33 bc 8a 7c 7b bd 47 ca db 3d fc 13 d4 bd
       -0.010956301 -0.061398067 0.10731941 -0.10355374
000290 fa 75 bb 3d c8 96 df 3c ce 8c 08 3d 62 73 f7 bd
       0.091533616 0.027293578 0.033337407 -0.120825544
0002a0 65 5c b3 3c 60 3f c0 3d a0 19 d3 3c 44 dd 7e 3d
       0.021894643 0.09387088 0.025769055 0.062222734
0002b0 b4 f4 a8 3d a0 31 7d 3d a2 1b d8 bc b6 49 81 bd
       0.082497984 0.061814904 -0.026380364 -0.06312887
0002c0 81 6b de 3d eb dc ce 3b 22 f7 b6 bd 2a e7 6c bd
       0.108603485 0.0063129566 -0.089338556 -0.057837643
0002d0 2e c7 a9 3d 33 02 33 bd cc aa dc bd cd 09 b2 3d
       0.08289944 -0.04370327 -0.107747644 0.086932756
0002e0 a5 97 46 bc 87 0b f2 bd 5a d9 85 bd 9c 4f f6 3d
       -0.012121116 -0.11818605 -0.06535597 0.12026903
0002f0 85 48 53 bc b8 76 90 3d d3 8a ca bd 60 5c 5e 3d
       -0.012895708 0.07053894 -0.0988976 0.054287314
000300 00 07 4f ba 77 43 13 3d ba 11 d6 bd 35 0a 97 bd
       -0.00078974664 0.03595301 -0.104526 -0.07374994
000310 80 e7 34 bd 36 e5 fe bc 6f cb aa 3d da 62 e7 bd
       -0.044166088 -0.031115156 0.08339583 -0.11298151
000320 2e b0 c0 bd 40 4e d0 3d 11 f1 d7 3d e6 68 1d 3d
       -0.094086036 0.10171175 0.10544027 0.038430117
000330 b0 94 f2 3d 6e 0e 0a 3e 80 eb af 3b 8a 3f 09 3e
       0.11844766 0.13482067 0.00536865 0.13403144
000340 1e 1a fb 3d 0e 6d 35 bd f7 ad 58 bd 68 b9 64 bd
       0.12260841 -0.044293456 -0.05290028 -0.05584088
000350 7b 1b f4 bd 26 11 3a bd f6 db bf bb 24 4e a3 3d
       -0.11919304 -0.04542651 -0.005855079 0.079738885
000360 dc 6d e9 3d 38 7a 9a 3c 18 5d 20 bd 20 05 d7 bc
       0.11397907 0.018857107 -0.03915128 -0.026247561
000370 bb b3 49 bd d1 c0 af 3c 3e c6 e1 3d de a8 ea 3d
       -0.04924367 0.021454247 0.1102414 0.1145799
000380 b3 1c 37 3d 7a 01 17 3e 52 1c af bd 80 02 a1 3c
       0.044705104 0.14746657 -0.085503235 0.019654512
000390 b0 82 e0 bc 24 4a d9 3d 9f 23 c6 bd 09 78 dc bc
       -0.027406067 0.10609844 -0.09674763 -0.026912706
0003a0 d6 7f 6c 3b 8c 3d f9 3d b0 3e e8 bc 4c 61 bd bd
       0.0036086938 0.12169942 -0.028350204 -0.092470735
0003b0 40 a5 cc bc ec 90 d6 3c dc 06 f2 3d 8d 58 9d bd
       -0.024981141 0.026192151 0.118177146 -0.07682905
0003c0 d6 81 8c 3d a7 e4 0d bd 84 33 ae 3d 20 79 53 3d
       0.06860702 -0.034641888 0.085059196 0.051629186
0003d0 04 75 d7 bd 02 b1 8f bd e9 3a d4 3d 96 d5 0e 3b
       -0.10520366 -0.070161834 0.10362799 0.0021794788
0003e0 e4 a5 92 bd f4 97 93 3d c4 78 ae 3d 24 f0 1a bd
       -0.071605474 0.07206717 0.08519128 -0.037826672
0003f0 67 e8 91 bc a2 45 f6 bc 33 72 97 bd 80 c0 42 3b
       -0.017811013 -0.0300625 -0.07394829 0.002971679

fc2.bias f4 [32]
000000 06 12 93 3d b0 b6 70 bd 15 28 99 3d 0a aa 18 3d
       0.07181172 -0.058767974 0.07478348 0.037271537
000010 88 4b 2d 3d dc 7a 6f bd f3 75 bf bd bb a9 83 3b
       0.04230836 -0.058466777 -0.09348669 0.004018036
000020 5d 7d ba 3d b2 47 a0 bc 60 9a 8c 3c 6c c8 79 bd
       0.091059424 -0.019565437 0.017163455 -0.060982153
000030 b9 60 96 bd 1a 26 ab 3c 92 12 ae 3c 7e d0 b3 3d
       -0.07342667 0.020892192 0.02124909 0.08780001
000040 56 70 f2 bb 57 1e 98 3d c4 2e c4 3d cc f7 ae 3d
       -0.0073986454 0.07427662 0.09579232 0.08543357
000050 2f 15 a6 bd 87 c8 be 3d 00 c1 73 3d 78 02 af bc
       -0.08109509 0.09315591 0.05951023 -0.021363482
000060 7b ea 93 bc 66 ee ab 3d 58 4b 90 bc c2 c3 da 3d
       -0.018056145 0.0839508 -0.017614052 0.10681869
000070 c5 d1 76 3c 84 2d 0d bc a2 33 ab bd bc 1a 47 bd
       0.015064661 -0.008616809 -0.083594576 -0.04860948

fc3.weight f4 [1, 32]
000000 1c 3b 33 3d 80 d8 2a bd 55 82 14 be 13 c9 87 3d
       0.043757543 -0.041710377 -0.14502843 0.06630149
000010 a3 0a 2b be 57 1c 02 be ef 9c 1a 3c 65 41 27 be
       -0.16703276 -0.12706123 0.00943683 -0.1633354
000020 51 b7 31 be f6 3c 28 3d af 03 db 3c 0e 83 e1 3d
       -0.17355086 0.041073762 0.026735155 0.11011325
000030 ab fc 36 3d 72 21 1e be cc 93 3c 3b f7 d8 c3 bd
       0.044674557 -0.15442446 0.0028774617 -0.09562867
000040 3c a3 13 3d 26 a7 c4 bd 97 96 2d be c8 ee c5 3c
       0.036044344 -0.096021935 -0.16951977 0.024161711
000050 e7 56 07 be e7 73 2b bd f2 1c 3e 3e 93 ba 25 3e
       -0.13216744 -0.04185858 0.1856573 0.16184454
000060 91 ca 90 3d 61 98 c4 bd 83 c8 08 3e c0 6e ca 3c
       0.070698865 -0.095993765 0.13357739 0.024711013
000070 e4 4d 54 bd 89 db 2b be 54 94 ea 3c b2 c7 f3 3d
       -0.051832095 -0.16782965 0.028635181 0.11903323
